app/src/main/assets/model_1_3.tflite (tflite, 511088 bytes, 18 tensors)

sequential/dense/BiasAdd/ReadVariableOp f4 [32]
000000 7a 7d dc bb 5c b4 57 bc 59 e6 4d 3c e1 08 05 bd
       -0.006728825 -0.01316556 0.012567126 -0.03247917
000010 87 f5 08 bd ae e7 69 bc df df e8 bc 9e e0 20 3d
       -0.033437278 -0.014276428 -0.028427063 0.03927671
000020 6c 6d 95 3c c2 e3 58 bd ba 0a 06 bd 1d 61 e7 3c
       0.018240653 -0.05295158 -0.032725073 0.02824455
000030 b2 aa d8 3c d5 01 83 3c cf 88 91 bb be 70 01 3d
       0.026448581 0.015992085 -0.0044413577 0.03160166
000040 ad a7 46 bc b0 7d 46 bb cf 12 f8 3b ff 51 b2 3d
       -0.012124938 -0.0030287318 0.0075706015 0.08707046
000050 64 cf c6 bc af 0e 55 bc 34 43 d7 bc a6 13 76 3c
       -0.024268813 -0.013003989 -0.026277162 0.015019333
000060 68 29 92 bc 67 f5 e1 bc 7c 98 e5 bc f6 91 16 bd
       -0.01784201 -0.027582837 -0.028026812 -0.036760293
000070 af 2f 31 bc d1 45 8c bc f6 60 f3 bc bc 15 c9 bb
       -0.010814591 -0.017123135 -0.02970932 -0.006136624

sequential/conv2d/BiasAdd/ReadVariableOp f4 [32]
000000 7c 68 59 3c 94 56 19 bc c6 f9 f7 3c d2 71 a2 bc
       0.01326954 -0.009359021 0.030270468 -0.019829664
000010 07 00 16 3a 7b 7a ed 3c 49 5b 25 3d 91 cb ae 3b
       0.000572205 0.028989067 0.04037026 0.0053343256
000020 eb d0 7f bc b8 3b 22 3c 6b e5 01 3d ed fa 2d 3d
       -0.015613775 0.009901933 0.03171293 0.04247563
000030 90 a9 24 3d 7b 67 76 3c 50 33 9b 3b 5a 40 07 3c
       0.04020077 0.01503932 0.0047363415 0.008255089
000040 76 2b d6 bb 0c be 7f bc e3 04 01 bb 27 3e b4 3c
       -0.0065359427 -0.015609276 -0.001968675 0.022002293
000050 3d 52 1b 3d 52 be ec 3a 2b 3e e7 3c 4b c6 1f 3c
       0.037920225 0.0018062091 0.028227886 0.009751867
000060 da 46 19 3d f5 b7 96 3c cf ea 47 3c 1a 54 9f 3c
       0.037421085 0.018398264 0.012201979 0.019449282
000070 d2 1b 34 3d 63 ff f4 3c 9b 36 13 3d 2c 2f b1 3c
       0.043971844 0.029906934 0.035940748 0.021628939

sequential/conv2d_3/BiasAdd/ReadVariableOp f4 [144]
000000 12 33 1c be 76 6f 4d be 2f e7 99 bd f8 f0 59 bd
       -0.15253857 -0.2006205 -0.07514798 -0.05320832
000010 1f 20 16 be b5 a0 1b be 80 0a 1f be 78 98 47 be
       -0.1466069 -0.15198024 -0.15531349 -0.19491756
000020 00 cb 1b be a9 7d 37 be 96 5c 4e be f2 0d 30 be
       -0.15214157 -0.1791903 -0.20152506 -0.1719282
000030 23 4d d4 bd 62 2d f7 bd ae f1 c2 bd db 42 3e be
       -0.10366275 -0.12069203 -0.09518753 -0.18580191
000040 7f 8d 0e be c6 d1 83 bd ef 99 fe bd 2c 4a 53 be
       -0.13921164 -0.064364955 -0.12431704 -0.20633763
000050 15 29 e5 bd a9 84 1a be 08 db b9 bd 1c b2 1e be
       -0.111894764 -0.15089668 -0.0907498 -0.15497631
000060 a8 d9 91 bd 93 30 4d be 37 42 f6 bd 85 e0 54 be
       -0.07121593 -0.20038061 -0.12024348 -0.20788772
000070 09 dc 15 be 75 39 27 be b6 70 e6 bd a6 92 92 bd
       -0.14634718 -0.16330512 -0.11251967 -0.07156877
000080 14 42 01 bd 90 b0 28 be eb 27 fc bd 25 b7 c0 bd
       -0.031557158 -0.16473603 -0.12312301 -0.09409932
000090 da f1 1a be 09 8b 21 be ff 13 0b be 73 5d 2b be
       -0.15131322 -0.15775694 -0.13581847 -0.16734867
0000a0 07 38 64 be 0d 0a fc bd d6 1b 0f be 55 a1 2c bd
       -0.22286998 -0.123066045 -0.13975462 -0.042146046
0000b0 98 97 dc bd 80 12 04 be 7d 0b df bd 6e cd 3b be
       -0.10771102 -0.12897682 -0.10890863 -0.18340084
0000c0 a3 11 ff bd f5 fe ec bd 24 02 ce bd 85 0d 1d be
       -0.12454536 -0.11572067 -0.10059002 -0.15337189
0000d0 f1 60 36 be 73 ec 34 be ea 70 59 be 3b 04 ca bd
       -0.17810418 -0.17668323 -0.2123448 -0.09864088
0000e0 4b ea da bd b9 82 2e be ba 8a 00 be 54 f8 35 bc
       -0.10689219 -0.17042054 -0.1255292 -0.011106569
0000f0 fe 2b a1 bd 36 0b b8 bd 2c 8b 0d be 81 c6 d9 bd
       -0.07869719 -0.08986513 -0.13822621 -0.10633565
000100 70 92 f0 bd 88 a3 e0 bd 93 4f 59 be 8f 32 39 be
       -0.11746681 -0.10968691 -0.21221761 -0.18085693
000110 8c 3e 01 be b2 c3 3b be ce 1d 03 be 78 a0 0c be
       -0.12621516 -0.1833637 -0.12804338 -0.13733089
000120 7d a0 35 be 56 6f 2e be 7a fa 05 be f0 de b2 bd
       -0.17737003 -0.17034659 -0.1308383 -0.08733928
000130 a8 b4 15 be 2d 12 f6 bd 98 f2 d6 bd 31 07 8c bd
       -0.14619696 -0.120151855 -0.1049549 -0.06837309
000140 d0 b1 aa bd bf 89 ba bd 69 d8 49 be bc 18 e9 bd
       -0.08334696 -0.09108304 -0.1971146 -0.11381671
000150 fe 9a 35 be 21 24 66 be a0 67 10 be 76 f3 e4 bd
       -0.17734906 -0.2247472 -0.1410203 -0.11179249
000160 ce 86 1d be 95 8e e8 bd cb 26 2a be ee 3e 08 be
       -0.15383455 -0.1135532 -0.16616361 -0.13305256
000170 09 cd 2c be 6e c6 53 be 63 0d dd bd bf d9 32 be
       -0.1687509 -0.20681164 -0.10793569 -0.17465876
000180 38 1b 21 be 71 5c 09 be 0e 80 86 bd f4 a6 a3 bd
       -0.1573304 -0.1341417 -0.06567393 -0.07990828
000190 ab f7 23 be 23 b3 16 be af b5 4e be 06 93 02 be
       -0.16012447 -0.14716773 -0.20186494 -0.12751397
0001a0 42 96 45 be b2 f6 11 be 43 ee c1 bd 60 18 35 bd
       -0.192956 -0.14254263 -0.09469273 -0.0442127
0001b0 d1 09 02 be 89 c6 2b be 89 7b 28 be 87 a3 86 bd
       -0.12699057 -0.16774954 -0.16453375 -0.06574159
0001c0 65 51 e8 bd 27 58 2e be 2c d3 38 be 21 e4 af bd
       -0.1134365 -0.17025815 -0.18049306 -0.08588434
0001d0 80 ff 41 be 45 43 9b bd f6 39 5d be 0c d6 d6 bd
       -0.18945122 -0.0758119 -0.21604142 -0.10490045
0001e0 5c f2 dd bd 2a ea 12 be 6c a2 db bd 0d 54 34 be
       -0.10837242 -0.14347139 -0.10724339 -0.17610188
0001f0 96 29 f7 bd ff 7e ee bd cb 1e 5f be f2 39 2b be
       -0.12068479 -0.11645316 -0.2178909 -0.16721323
000200 f8 24 10 be 9e 35 be bd b3 71 1d be 45 91 4f be
       -0.14076602 -0.092875704 -0.15375404 -0.2027026
000210 4f bc 2f be e6 27 42 be 86 c0 bc bd 2a bd ab bd
       -0.17161678 -0.18960533 -0.092164084 -0.083856896
000220 2c fb cd bd 17 eb f8 bd b6 22 4c be d2 0d 1e be
       -0.10057673 -0.12154215 -0.19935116 -0.1543496
000230 0c 2b 17 be 7e bc 03 be bf a9 1b be 3c 77 08 be
       -0.14762515 -0.12864873 -0.15201472 -0.13326734

sequential/conv2d_2/BiasAdd/ReadVariableOp f4 [96]
000000 46 dc 54 be 91 17 18 be eb 7c 19 be fa 0e 0a be
       -0.20787153 -0.1485274 -0.14989059 -0.13482276
000010 b1 50 14 be 7e 8e 2c be f1 e7 4a be 53 ee 06 be
       -0.14483906 -0.16851231 -0.19815041 -0.13176851
000020 a0 83 92 bd fb c2 61 be a3 43 0d be ea 98 5e be
       -0.07154012 -0.22047035 -0.13795333 -0.2173802
000030 68 56 08 be 65 a1 3f be 10 e8 31 be e4 58 48 be
       -0.13314211 -0.18713911 -0.17373681 -0.19565159
000040 21 fc 00 be b9 cd 2d be 54 4e 0d be d5 75 c6 bd
       -0.1259618 -0.16973008 -0.13799411 -0.096904434
000050 35 b2 82 be d9 64 f5 bd a9 e4 87 bd bc e5 6e be
       -0.25526586 -0.11982126 -0.0663541 -0.23329824
000060 06 f6 4b be ef a3 79 be bd 9e 23 be ac b4 31 be
       -0.19918069 -0.24378942 -0.15978523 -0.17354077
000070 8d c2 34 be b6 b5 13 be e5 5c 19 be 2c 2f 75 bc
       -0.1765234 -0.14424786 -0.14976843 -0.01496486
000080 61 35 3e be b1 91 69 be 53 3d 15 be 47 0f b0 bd
       -0.1857505 -0.22809483 -0.14574175 -0.08596664
000090 34 53 5b be b4 ba 62 be 43 69 56 be e0 46 ef bd
       -0.21418458 -0.22141534 -0.20938592 -0.1168344
0000a0 32 b4 98 bd 56 e9 19 be 07 3b 2d be 57 97 5a be
       -0.074562445 -0.15030417 -0.16917048 -0.21346794
0000b0 50 df fd bd a7 3d 04 be 96 43 fe bd df af 7b 3c
       -0.12396109 -0.12914144 -0.12415235 0.015361755
0000c0 db 3b fe bd a1 d4 9c bd 3a b5 f3 bd 10 49 f0 bd
       -0.1241376 -0.07657743 -0.118998006 -0.117326856
0000d0 63 f8 53 be 6e d4 3e be 62 94 48 be 20 35 9a bd
       -0.20700221 -0.18635723 -0.19587854 -0.07529664
0000e0 4f f7 29 be b1 7e 15 be 63 10 e5 bd 69 1f 99 bd
       -0.16598247 -0.1459911 -0.11184766 -0.07476694
0000f0 98 58 89 bd 5d cd 5d be d9 2a 2f be 5a ef 4c be
       -0.06706351 -0.21660371 -0.17106189 -0.2001318
000100 89 48 28 be 0a 43 02 be 4e b0 09 be 79 bf 01 be
       -0.1643392 -0.12720886 -0.13446161 -0.12670697
000110 69 d9 10 be 03 61 75 be 63 87 18 be 17 bf c6 bd
       -0.14145435 -0.23962788 -0.14895396 -0.09704416
000120 f0 cc 34 be 4e 49 4f be 1d 50 47 be 27 a1 77 be
       -0.17656302 -0.20242807 -0.19464155 -0.24182568
000130 bc b7 28 be 88 3a b2 3d 6e 6a cc bd d6 dd 4f be
       -0.16476339 0.0870257 -0.09981237 -0.20299467
000140 18 25 2b be 80 4d 18 be 6d 03 02 be d0 44 4f be
       -0.16713369 -0.14873314 -0.1269662 -0.20241094
000150 77 3e 57 be fc 23 7c bd f7 77 12 be 95 71 0c be
       -0.21019922 -0.061557755 -0.14303575 -0.13715203
000160 cc 78 9e bc ba ea 81 be 5c a7 02 be fd 6f 78 be
       -0.01934471 -0.25374395 -0.12759155 -0.2426147
000170 63 cc f0 bd ac 6e fd bd e0 7f 41 be a6 3b 9f bd
       -0.11757734 -0.123746246 -0.18896437 -0.07775049

sequential/conv2d_1/BiasAdd/ReadVariableOp f4 [64]
000000 6b e3 57 bd 03 2c f8 bd c2 dd 30 be 8d 0f d2 bd
       -0.052707117 -0.121177696 -0.17272094 -0.10256872
000010 0c d9 b8 bd ab 4b ea 3c 72 03 99 bd 8c a4 cb bd
       -0.090257734 0.028600534 -0.0747136 -0.09943494
000020 96 3d a5 bd 4e 9a 3d be fa a7 83 bd bc 2e b3 bd
       -0.08068387 -0.18515894 -0.06428523 -0.08749148
000030 6a 2f 5c bd b3 3d 06 be f0 3a c0 bd 0a 3f f9 bd
       -0.053756155 -0.13109474 -0.093862414 -0.12170227
000040 0f c9 dd bd 09 9c a4 bd 82 bd 16 be b7 ad 8d bd
       -0.108293645 -0.08037574 -0.14720729 -0.06917899
000050 60 ed 16 be 07 35 28 be dd e9 59 bd 65 b8 bf bd
       -0.14738989 -0.16426478 -0.053201545 -0.09361342
000060 83 14 80 bd ac c1 fc bd de 3b 9e bd e5 76 a3 bd
       -0.06253912 -0.123416275 -0.077262625 -0.07981662
000070 f6 61 13 be 55 a9 46 bd c3 2a 90 bd 32 94 ce bd
       -0.14392838 -0.04850133 -0.07039406 -0.1008686
000080 99 25 ae bc b6 a4 de bd ba 7e 36 be 41 f9 15 be
       -0.021258162 -0.1087126 -0.1782178 -0.14645864
000090 7c 19 be bd 9c ec e6 3b 81 47 14 be 1d 85 33 be
       -0.092822045 0.007047249 -0.14480402 -0.17531247
0000a0 44 56 ee bd c4 66 8d bd 65 61 4c bc c6 1d a9 bd
       -0.116375476 -0.069043666 -0.012474393 -0.08257632
0000b0 2e ba c4 bd b2 4d e3 bc 4f cf b2 bd c6 08 ef bd
       -0.096058235 -0.027747009 -0.08730947 -0.11671595
0000c0 97 af 03 be cf a5 49 bd 0b cb 13 be d9 71 be bd
       -0.12859951 -0.049230393 -0.14432923 -0.092990585
0000d0 b6 26 2c bd 91 23 80 bd b1 0e a2 bd 68 e0 23 be
       -0.042029105 -0.06256784 -0.079129584 -0.16003573
0000e0 7e 4a 9a bd fa 3c 67 be d4 99 c0 bd a2 8b b9 bd
       -0.075337395 -0.22581854 -0.094043404 -0.09059836
0000f0 8b 45 1d be 48 16 e5 bd 8e 50 73 bd d0 5f 13 be
       -0.1535856 -0.111858904 -0.059402995 -0.14392018

sequential/batch_normalization/FusedBatchNormV3 f4 [32]
000000 7f 59 f7 41 ef 6d f6 41 38 3c ab 41 7a 77 f8 41
       30.9187 30.803679 21.404404 31.058338
000010 8c 6a 97 41 3b 97 f8 41 2e 55 b4 41 ec 9f 18 42
       18.927025 31.073843 22.541592 38.156174
000020 eb 16 f9 41 5d e5 d4 41 e7 0b 91 41 0e 71 91 41
       31.13619 26.611994 18.130812 18.180202
000030 b2 44 b7 41 27 18 d8 41 49 5d e8 41 96 55 b3 41
       22.908543 27.011793 29.04555 22.41679
000040 b7 69 fe 41 66 7e 2e 41 df 41 00 42 52 d7 a0 41
       31.801619 10.905859 32.064327 20.105137
000050 85 80 cd 41 79 41 07 42 d5 03 a9 41 94 fe e6 41
       25.687754 33.81394 21.126871 28.874306
000060 73 8a ab 41 32 3e ff 41 ad 48 ac 41 aa cf 9c 41
       21.442602 31.905369 21.535486 19.601398
000070 3f b8 d7 41 4e 3f 9f 41 cd 3b 4f 41 ed e0 d7 40
       26.964964 19.90591 12.9521 6.7462068

sequential/batch_normalization/FusedBatchNormV31 f4 [32]
000000 62 71 eb bd 37 68 1a bc 76 ac 22 bf 05 0d 4d be
       -0.114962354 -0.009424261 -0.63544405 -0.20024498
000010 6c 84 df be ea 0b b5 bc fa 31 55 bf 45 5a ac be
       -0.43655717 -0.022100408 -0.83279383 -0.3366262
000020 62 d3 74 3d cb de 5d 3d e9 ca 09 be fa 06 51 bf
       0.059771903 0.05416755 -0.1345631 -0.8165127
000030 96 31 69 bf 07 d5 e8 be cc 6d 33 be 60 54 76 3c
       -0.9109129 -0.45475027 -0.17522353 0.015034765
000040 ae e0 74 34 29 d8 c4 be 37 7e 8f 37 eb 23 5b bf
       2.2806009e-07 -0.38446167 1.7105702e-05 -0.8560168
000050 33 58 64 bf 0c d1 d6 bd fe 11 15 bf 54 fa 44 3d
       -0.8919708 -0.10489091 -0.5823058 0.048090294
000060 b7 ef 49 bf 06 36 4c 3d bd 1a 2b be fa 8f 21 be
       -0.788814 0.04985621 -0.16709419 -0.15777579
000070 94 ee 9a bf 27 4b c7 be 84 fa 36 bf 69 7c c1 bf
       -1.2104058 -0.38924524 -0.71476007 -1.5116092

sequential/batch_normalization_1/FusedBatchNormV3 f4 [64]
000000 39 3c 08 41 b8 ea eb 40 a6 1c 8e 41 cf cb eb 40
       8.514703 7.372402 17.763988 7.368629
000010 7e ff 01 41 a7 3b 9b 40 67 0e 31 41 0c 93 11 41
       8.124876 4.851032 11.066016 9.0984
000020 4d 26 cc 40 ee b8 b2 41 23 c1 03 41 03 42 79 41
       6.3796754 22.340298 8.2346525 15.578616
000030 f7 fd 3f 41 03 83 31 41 22 87 50 41 a7 22 98 40
       11.999503 11.094485 13.032991 4.75423
000040 d1 93 10 41 38 5e 87 40 b0 46 5a 41 df a6 b3 40
       9.036088 4.2302513 13.642258 5.61412
000050 d2 a8 7e 40 34 9a 0b 41 65 1f dd 40 ca e3 3d 41
       3.979054 8.725147 6.9100823 11.868113
000060 ea 83 4c 41 c0 ad 3f 41 29 e3 f9 40 6a 56 33 41
       12.782206 11.979919 7.8089795 11.208597
000070 86 64 34 40 9f 66 14 41 5c 31 f6 40 c3 2a 51 41
       2.8186355 9.275054 7.6935253 13.07294
000080 ed 69 1a 41 b2 79 be 40 d0 dc 8d 41 31 90 1f 41
       9.650861 5.9523554 17.732819 9.972703
000090 9f 3d 0b 41 78 20 b3 40 76 5d 96 40 15 d8 41 41
       8.702544 5.5977135 4.698909 12.115254
0000a0 ef 5c 25 41 ba 25 89 40 6c 10 8e 40 0f fe 5e 41
       10.335189 4.2858553 4.4395046 13.937026
0000b0 33 f3 27 41 ae f5 87 40 d9 ea f9 40 fc 79 a4 41
       10.496875 4.24874 7.809918 20.559563
0000c0 16 e0 38 41 51 c5 99 40 ea a6 83 41 9c a8 8b 41
       11.5547085 4.8053365 16.456501 17.457329
0000d0 c0 ed ff 40 54 0b 2b 41 fd 1d 83 40 74 70 67 40
       7.997772 10.690266 4.0974107 3.6162386
0000e0 a0 41 c6 40 08 00 b6 40 e2 54 4a 41 23 54 86 40
       6.195511 5.687504 12.645723 4.1977706
0000f0 a0 67 16 41 9e e1 2b 41 be 50 cf 40 7d d0 71 41
       9.400299 10.742582 6.478606 15.1134

sequential/batch_normalization_1/FusedBatchNormV31 f4 [64]
000000 56 d0 95 be 21 68 2e be f0 81 ea 3d 47 7a df be
       -0.2926051 -0.1703191 0.11450565 -0.43647978
000010 54 ea 33 be ae 92 bc be 36 41 9f be 00 d1 6a be
       -0.17569858 -0.36830658 -0.3110444 -0.2293129
000020 d0 15 19 bf eb f1 58 3e 0c 58 2a bf 3a b6 06 be
       -0.5979891 0.21186034 -0.665406 -0.13155451
000030 a1 27 22 bf bf 6f 04 bf dc 4a 1e bd 02 1a 9f be
       -0.6334172 -0.5173301 -0.03864561 -0.3107453
000040 c7 a1 7e be 64 96 9f be 19 5c 85 be 7b da c0 be
       -0.248664 -0.31169426 -0.26046827 -0.37666687
000050 00 5e 7f 3b 00 53 80 ba 79 13 19 bf d6 6a 04 be
       0.003896594 -0.0009790361 -0.5979534 -0.1293138
000060 36 74 8c bd 68 fe 42 3d 94 b9 7d be c3 59 1d bf
       -0.06858103 0.047605902 -0.24777824 -0.6146509
000070 f8 61 05 bd e0 c1 03 bf 84 89 64 bd 80 2c 97 bd
       -0.032564133 -0.51467705 -0.055795208 -0.073815346
000080 78 99 12 bf 1c bf 81 be a6 26 01 3e 1e df 03 3e
       -0.57265425 -0.25341117 0.126124 0.12878081
000090 14 84 f6 bd 7c 1e 2c bf 84 e6 20 be 00 47 92 bb
       -0.12036911 -0.67234015 -0.15712935 -0.0044640303
0000a0 80 83 b0 be 60 e4 ff be b1 54 ef be 00 62 78 3c
       -0.34475327 -0.49978924 -0.46744302 0.015160084
0000b0 38 2e f5 be 26 ff 8d be c4 9a d2 be 21 06 8f 3d
       -0.47886825 -0.27733725 -0.41133702 0.06983591
0000c0 f8 3b c9 be e8 fb 3d bf 04 01 51 bd 00 49 8b be
       -0.39303565 -0.74212503 -0.05102636 -0.27204132
0000d0 a0 49 2a bf 22 5e c7 bd 7a f6 4e be 38 fc 2a 3d
       -0.6651859 -0.09734751 -0.20211211 0.04174444
0000e0 1a b1 65 be e0 cc 3a bc 16 ab 21 be 04 37 b0 3d
       -0.2243084 -0.011401385 -0.1578792 0.086042434
0000f0 3c 09 e2 3d c4 ee 39 bd 47 1b 2a be 3a cc f0 3d
       0.110369176 -0.04539372 -0.16611968 0.11757703

sequential/batch_normalization_2/FusedBatchNormV3 f4 [96]
000000 fc d3 de 40 38 06 c5 40 64 e8 06 41 8d 19 fc 40
       6.963377 6.157009 8.431736 7.878119
000010 7b 97 01 41 bd 3a 1f 41 79 b6 22 41 7a be 1f 41
       8.099483 9.95184 10.169549 9.984003
000020 91 9d 44 40 1b 49 80 41 75 2c 56 41 0e 66 22 41
       3.072117 16.035696 13.385854 10.149916
000030 ef ba a9 40 70 57 b9 40 df 2f 4f 40 b6 d5 d1 40
       5.304069 5.7919235 3.2372968 6.5573378
000040 a0 81 b9 40 65 1a 6e 40 a7 ca 33 40 54 97 1c 41
       5.7970734 3.720361 2.809244 9.786945
000050 5c 2c 29 40 fa 46 56 40 81 f4 04 41 ca 99 7b 41
       2.6433325 3.348082 8.309693 15.725046
000060 c0 1a 40 41 b3 57 d4 40 d2 f0 12 41 0a 28 fe 40
       12.006531 6.6357055 9.183794 7.9423876
000070 57 36 f0 40 42 99 1c 41 3a 8c b3 40 85 52 9c 40
       7.5066333 9.787416 5.6108675 4.885073
000080 97 41 26 41 45 a7 3d 41 47 25 88 40 06 fc 2b 41
       10.391013 11.853337 4.2545505 10.749029
000090 6d bd 15 41 fd 4b c3 40 5e e3 9e 40 1e e8 89 40
       9.358747 6.103026 4.965255 4.3095846
0000a0 bd 91 8d 40 c1 84 cb 40 0b ed 61 40 e3 ca 80 41
       4.4240403 6.3599553 3.530093 16.099066
0000b0 2f c5 03 41 7c 37 f1 40 46 0c 9c 40 63 e6 c1 40
       8.235641 7.538023 4.876498 6.0593734
0000c0 4e 69 f5 40 fd 9e b5 40 73 01 de 40 1e 5e da 40
       7.6691046 5.6756577 6.937677 6.823989
0000d0 8e 18 2a 41 8b 41 af 40 5d 64 1e 41 63 b4 83 40
       10.630995 5.476751 9.899503 4.11577
0000e0 1b 6e cc 40 2d 71 e8 40 00 37 b9 40 84 26 df 40
       6.3884406 7.2638154 5.787964 6.9734516
0000f0 a0 5d 5a 40 51 c9 53 41 42 02 bb 40 31 4f 99 40
       3.4119644 13.2366495 5.8440256 4.790917
000100 53 97 46 41 f7 5b c5 40 00 ad 29 41 30 20 62 41
       12.411944 6.167476 10.604736 14.132858
000110 d8 40 d0 40 eb cc fd 40 cf 2f 06 41 54 42 dd 40
       6.5079155 7.9312644 8.386672 6.9143467
000120 67 60 b9 40 30 8b 51 40 5f 44 2e 41 0a 11 18 41
       5.793018 3.2741203 10.891692 9.50416
000130 bc a5 62 40 32 35 1b 40 26 82 96 40 5b 98 d8 40
       3.5413656 2.4251218 4.7033873 6.768598
000140 b2 92 ac 40 51 a8 71 41 3b 60 bc 40 3a 1f 04 41
       5.392907 15.103593 5.886747 8.257624
000150 0b 82 90 40 54 eb 10 41 2e 96 19 41 1e 41 4a 41
       4.5158744 9.057453 9.599165 12.640898
000160 33 2d a1 40 df 42 38 40 53 4e 07 41 20 4a 61 40
       5.0367675 2.8790815 8.456622 3.5201492
000170 ef 2b 1a 41 bf f6 03 41 4c 93 b6 40 04 03 14 41
       9.635726 8.247741 5.7054806 9.250736

sequential/batch_normalization_2/FusedBatchNormV31 f4 [96]
000000 98 03 3a be 1c 99 28 bf 20 0f 38 3d 58 30 89 be
       -0.18165433 -0.65858626 0.0449363 -0.26794696
000010 6e ca 94 be 26 d5 8f be 3d e7 90 be 92 1f 0b bf
       -0.29060692 -0.28092307 -0.2830142 -0.5434505
000020 77 f1 00 bf d4 c2 9a bc f4 4c 8f be 23 d4 99 be
       -0.50368446 -0.01889173 -0.27988398 -0.3004466
000030 48 44 68 be 28 32 85 bd bc 4b 80 bd 82 0f 99 be
       -0.22682297 -0.06503707 -0.06264445 -0.29894644
000040 b5 2d b0 be b8 67 73 3d 39 b6 9e be 54 0c 73 be
       -0.34409872 0.059425086 -0.309984 -0.23735172
000050 20 db 15 3d 18 f4 48 bd 15 b1 0c be 9e 4d b9 bd
       0.036585927 -0.04906091 -0.13739426 -0.090480074
000060 d8 58 8c be c2 42 d4 bd c4 d7 d7 bd 3a dc db be
       -0.27411532 -0.103642955 -0.10539201 -0.42941457
000070 ea 8b 2a bf d4 4c 17 be 4c f9 df be 72 c8 85 be
       -0.6661974 -0.14775401 -0.43744886 -0.2612949
000080 e9 83 fc be 28 32 4c bd b2 ef e0 bd ec f3 38 bd
       -0.4931939 -0.04985252 -0.10983218 -0.045154497
000090 84 64 b2 be 30 fe 2a bd dc 29 a7 3d 60 f1 26 3c
       -0.34842312 -0.04174632 0.08162281 0.010189384
0000a0 6e fa 6f be 18 00 b9 bd 24 df b6 bd 10 94 7f 3c
       -0.23435375 -0.09033221 -0.089292794 0.015599266
0000b0 bd d1 31 be 00 5c 03 3b 74 33 f5 bd 88 54 9b bd
       -0.17365165 0.002004385 -0.119727045 -0.075844824
0000c0 30 47 f1 3c e9 3d 87 be 28 33 6e be 40 84 8a 3c
       0.02945289 -0.2641442 -0.23261702 0.016908765
0000d0 b4 c6 25 3d 80 51 08 bc 81 76 37 be 08 1e a5 be
       0.0404727 -0.008320212 -0.179163 -0.32249475
0000e0 71 a0 19 be 64 a5 28 bd 95 d1 96 be e5 4e 1b be
       -0.1500261 -0.041173354 -0.29456773 -0.15166815
0000f0 f8 32 b2 bd d5 8c 94 be fe 45 af be ee 7a fb bd
       -0.08701128 -0.29013696 -0.34233087 -0.12279306
000100 52 32 81 be f4 98 ea be 6c b9 c3 3c 87 60 13 3e
       -0.25233704 -0.4581982 0.023892127 0.14392291
000110 4e 51 11 bf 74 00 bb bd 63 22 a2 bd 60 82 84 3c
       -0.56764686 -0.09130946 -0.07916715 0.016175449
000120 7e bd db 3d da 7d 4e be b8 4b f9 bc 20 04 7c bc
       0.10729502 -0.20165196 -0.030431613 -0.015381843
000130 e8 d1 d1 bd 5c 35 32 bf 04 40 bf be f8 06 33 bd
       -0.102451146 -0.6961267 -0.37353528 -0.043707818
000140 c0 0f cf 3b 66 77 3f be bd a4 0d 3e 98 18 8f be
       0.006319016 -0.1869789 0.13832374 -0.2794845
000150 2c d2 79 bd 80 41 0f 3d 2a 0a 01 be 70 0f 9a 3c
       -0.06099145 0.034974575 -0.12601534 0.01880619
000160 e8 e2 cd be 40 43 88 3c d0 50 2e be b0 0f c7 3d
       -0.40212178 0.01663363 -0.17023015 0.09719789
000170 b1 db 15 be fb 60 6a be aa 1a d8 be a0 29 69 bd
       -0.14634587 -0.22888558 -0.42207843 -0.056924462

sequential/batch_normalization_3/FusedBatchNormV3 f4 [144]
000000 e3 6a 83 41 c0 ce c3 40 e5 09 40 40 85 af e1 40
       16.42719 6.118988 3.000604 7.0526757
000010 ea 5b e1 40 01 88 7a 40 b5 21 8c 40 8b ed 84 40
       7.04247 3.914551 4.3791146 4.153997
000020 49 de e9 40 0c 4e 0c 41 a9 34 b0 40 f2 f8 2b 41
       7.3083844 8.769054 5.5064282 10.748278
000030 5d c6 1e 41 83 cb 1b 41 04 65 ed 40 bb b0 0f 41
       9.923429 9.7371855 7.418581 8.980647
000040 d8 1f 00 41 c5 92 a4 40 48 0a 95 40 7c 33 ed 40
       8.007774 5.142916 4.657505 7.4125347
000050 2a 80 27 40 c0 b2 e1 40 ae 71 f4 40 e3 71 dd 40
       2.6171975 7.05307 7.638877 6.920152
000060 3e 7e 4f 41 c8 23 1d 41 e3 15 84 40 34 52 1f 41
       12.968321 9.821236 4.1276717 9.957569
000070 ef 1a df 40 ad b3 65 41 59 8c 0e 41 81 0e fc 40
       6.972038 14.356366 8.909265 7.8767705
000080 d3 0a 86 40 05 11 1a 41 1f 81 10 41 32 9d f7 40
       4.1888213 9.629155 9.031524 7.737939
000090 78 cf 0e 41 52 e7 eb 40 ae e8 d7 40 9a b2 c3 40
       8.925652 7.3719873 6.7471533 6.115552
0000a0 ee c5 18 40 3a fb 3a 41 b4 d5 01 41 7e 65 a1 40
       2.3870807 11.686335 8.114674 5.043639
0000b0 aa 95 01 41 79 d3 15 41 39 a2 36 40 4f e1 82 40
       8.099039 9.364129 2.8536513 4.0900035
0000c0 8e 7c c6 40 55 3e 88 40 a4 42 c9 40 7f a9 fc 40
       6.2027044 4.257609 6.289385 7.8956904
0000d0 6a 5d 10 41 df ee 2f 41 16 38 0e 40 c4 7d 0d 41
       9.022806 10.995818 2.2221732 8.8432045
0000e0 c6 4e 40 40 df 57 9c 40 37 1d 56 40 42 8f ad 40
       3.004808 4.8857265 3.3455331 5.4237375
0000f0 49 8f e7 40 aa 78 d9 40 63 21 f4 40 98 50 bc 40
       7.236241 6.7959795 7.6290755 5.884838
000100 e6 05 4a 40 72 4f cd 40 aa e5 03 41 87 fd a1 40
       3.15661 6.415948 8.24357 5.062198
000110 16 66 10 41 07 32 1d 41 d9 39 08 40 d7 4d c8 40
       9.024923 9.824714 2.1285307 6.259502
000120 d5 8f 0e 40 89 8b dc 40 5a 84 02 41 d0 f5 15 40
       2.2275288 6.892033 8.157312 2.3431282
000130 7a 30 01 41 54 e4 d3 40 49 36 5b 40 6a 2c 08 41
       8.074335 6.621622 3.4251883 8.510843
000140 a7 b5 df 40 c0 00 4b 41 4b d9 18 41 69 08 ee 40
       6.9909244 12.687683 9.55305 7.4385266
000150 b1 c9 a7 40 9a ca cb 40 ad de 23 41 b0 bb 67 40
       5.2433705 6.3684816 10.241864 3.6208305
000160 c2 93 db 40 4e 9e e8 40 93 0d 06 41 34 21 1d 41
       6.861787 7.2693243 8.378314 9.820606
000170 0f 7a a4 40 e1 20 98 40 4e a5 11 40 56 69 e1 40
       5.1398997 4.7540135 2.2757144 7.0441084
000180 2f ce 91 40 da a4 0c 41 e1 83 c1 40 7f df e9 40
       4.556419 8.790247 6.0473485 7.308532
000190 91 90 b0 40 f0 6e bb 40 de f8 0b 41 4b ff 2a 41
       5.5176473 5.857292 8.748259 10.687327
0001a0 3b d7 d3 40 33 f3 f6 40 b0 ef 01 41 61 29 83 40
       6.6200233 7.7171874 8.121017 4.098801
0001b0 e3 a5 03 41 d4 96 4f 40 b0 b0 cb 40 63 47 07 41
       8.228 3.2435808 6.3653183 8.454928
0001c0 77 27 2d 41 aa 69 9b 40 49 7f 1b 41 cc f1 93 40
       10.822135 4.8566484 9.7185755 4.623266
0001d0 a5 17 b8 40 44 46 17 41 b2 22 ca 40 49 9c 3f 41
       5.7528863 9.454655 6.3167353 11.975656
0001e0 6f e3 e5 40 77 9c d3 40 e5 f8 e1 40 c9 9d 00 41
       7.184013 6.6128497 7.0616326 8.038522
0001f0 fa 87 9d 40 bd 36 1f 41 27 4c 42 41 b3 8e 86 40
       4.9228487 9.950864 12.143592 4.2049193
000200 5c 3b 6d 40 ba 9a f1 40 18 4d 13 41 87 1c c5 40
       3.706748 7.5501375 9.206322 6.1597323
000210 cd 29 a6 40 bb 00 5a 41 b6 f0 83 40 e1 20 0d 41
       5.1926026 13.625178 4.1231337 8.820527
000220 89 0e 3d 41 d9 a9 29 41 ea f2 aa 40 aa 56 c5 40
       11.816049 10.603967 5.3421526 6.166829
000230 f7 ec cc 40 dc 25 8e 40 21 05 e1 3f 7a 52 b3 40
       6.4039264 4.4421215 1.757969 5.603818

sequential/batch_normalization_3/FusedBatchNormV31 f4 [144]
000000 ca a5 bc bc 80 fb d4 bd d7 d1 86 be 2a 60 2d be
       -0.023028273 -0.10399532 -0.2633197 -0.16931215
000010 60 e3 18 be 9b 51 83 be b0 7b f8 bd 5c 7f ef bd
       -0.14930487 -0.25648198 -0.121329665 -0.11694214
000020 34 d5 3b be 5b 3e 2e be ef 99 01 be 90 60 b0 bd
       -0.1834305 -0.17015974 -0.12656377 -0.08612168
000030 94 c9 a1 bd fa c3 06 be 54 ac 06 be 28 df bf bd
       -0.07899776 -0.13160697 -0.13151675 -0.093687356
000040 9b e5 5d be 10 32 64 be 48 e1 31 be 1e dd 27 be
       -0.21669619 -0.22284722 -0.17371094 -0.16392943
000050 76 d9 89 be d5 5a 4b be cc 54 f0 bd 20 ee 09 be
       -0.26923722 -0.19858868 -0.11734924 -0.13469744
000060 1c 12 04 bd 34 6a b8 bd 5d c5 f4 bd 03 47 2a be
       -0.032243833 -0.09004632 -0.119517066 -0.16628651
000070 bb a7 9a bd 24 90 c2 bd 04 84 72 bd 79 97 1c be
       -0.07551523 -0.09500149 -0.05920793 -0.15292157
000080 9b e1 2a be d0 95 a9 bd ee df 1c be 28 a2 1e be
       -0.16687624 -0.082805276 -0.15319797 -0.15491545
000090 bf 6b 63 be 23 ba c9 bd 33 22 0e be b2 26 34 be
       -0.2220907 -0.09849956 -0.13880233 -0.17592886
0000a0 10 e6 83 be 08 87 cf bd 84 08 60 be ae 0d 14 be
       -0.2576146 -0.10133177 -0.21878248 -0.14458343
0000b0 72 00 32 be 5e b5 b8 bd 22 24 38 be f7 6a 28 be
       -0.17382982 -0.09018968 -0.17982534 -0.16447054
0000c0 48 e6 07 be bd 8b 2f be ce 60 29 be 0d 22 0d be
       -0.13271439 -0.1714315 -0.16540834 -0.1378252
0000d0 16 42 68 bd a0 9d aa bd 1a 19 1e be 66 38 e1 bd
       -0.05670365 -0.08330846 -0.15439263 -0.10997085
0000e0 cb c4 48 be a1 ff 13 be 49 32 58 be bd b6 7b be
       -0.1960632 -0.14452983 -0.21112932 -0.24581428
0000f0 77 51 5d be 61 d8 45 be 4a 11 95 bd 29 30 7c be
       -0.21613108 -0.19320823 -0.07278688 -0.24627747
000100 9d da 29 be 80 e6 43 be 3e e2 d5 bd 20 ae 08 be
       -0.165873 -0.19130898 -0.10443543 -0.13347673
000110 de 79 20 be 2c 92 c7 bd bc 60 a2 be 1c cd da bd
       -0.15671489 -0.09744677 -0.31714427 -0.10683653
000120 c9 d5 47 be 24 71 0c be 48 9f 00 be 66 b9 9f be
       -0.19515146 -0.13715035 -0.12560761 -0.31196135
000130 0d d1 0b be 6f d7 04 be 1d 41 3a be d8 6b 2a be
       -0.13653965 -0.12972806 -0.18188901 -0.16642702
000140 96 da 10 be 8a 9c a3 bc 68 df 4c bd 21 2b 1a be
       -0.14145884 -0.019972105 -0.050017744 -0.15055515
000150 8e a2 ea bd ba 71 18 be 4c 15 65 bd 0a bd 4c be
       -0.11456786 -0.14887133 -0.055928513 -0.19993988
000160 51 f3 44 be ea 3c b5 bd ec c9 28 be 1f 32 14 be
       -0.19233443 -0.08849509 -0.16483277 -0.14472245
000170 5d 7b 0b be 68 d5 85 bd e5 a1 a6 be ac e5 f4 bd
       -0.13621278 -0.06534845 -0.3254539 -0.11957869
000180 f7 3e 60 be fd 97 37 be f5 66 21 be 91 89 28 be
       -0.21899019 -0.17929073 -0.15761931 -0.16458727
000190 30 81 26 be d7 1f 1d be 60 ed aa bd ff ac 01 be
       -0.16260219 -0.15344177 -0.08346057 -0.12663649
0001a0 08 52 19 be 0c 38 c1 bd 85 d8 07 be 65 3d 89 be
       -0.14972699 -0.09434518 -0.1326619 -0.26804653
0001b0 3a 9c d4 bd a0 3f 37 be ad 28 d8 bd de 93 44 be
       -0.1038136 -0.17895365 -0.10554633 -0.19197032
0001c0 e2 d1 b4 bd 60 51 ea bd 71 05 c6 bd 32 98 59 be
       -0.088290945 -0.11441302 -0.096690066 -0.21249464
0001d0 c3 51 b1 bd 9a f2 c6 bd 9b 37 04 be 0d 00 18 be
       -0.08658173 -0.09714241 -0.12911837 -0.1484377
0001e0 bf ac b8 bd 0e f0 90 bd ab 5d 06 be 78 7d af bd
       -0.09017324 -0.07077037 -0.13121669 -0.08568853
0001f0 6a c1 59 be b2 13 1c be 7a d0 8c bd c4 74 08 be
       -0.21265188 -0.15241888 -0.06875701 -0.13325793
000200 4e 45 45 be 34 ba 1d be 02 fe df bd 9d e8 f6 bd
       -0.19264719 -0.15403062 -0.1093712 -0.12056086
000210 64 e1 c3 bd c6 af 91 bd 11 18 3c be fc 05 3d be
       -0.09564474 -0.07113604 -0.18368556 -0.18459314
000220 7c 3f 45 bd 15 65 37 be 12 5d a1 bd a5 65 1b be
       -0.048156247 -0.17909653 -0.0787908 -0.15175493
000230 1d 5b fd bd ad a3 20 be a2 a9 82 be 58 73 33 be
       -0.12370894 -0.15687437 -0.25520045 -0.17524469

sequential/conv2d/Conv2D f4 [32, 3, 3, 3]
000000 17 8f 94 3d ca 19 1a bd ce 2a ce bd 11 3c fb bc
       0.07253855 -0.03762225 -0.10066758 -0.03066829
000010 82 02 bb bd b5 66 88 ba f2 8d 29 3b 79 5d 34 bd
       -0.09131338 -0.0010406586 0.002587196 -0.044034455
000020 26 9f 33 bc b2 c5 45 bc e8 62 45 bd 54 5f 90 bd
       -0.010963237 -0.01207106 -0.048190027 -0.070494324
000030 76 68 e2 bc ee 2f ae bd 30 6c 9e bb 56 46 81 bd
       -0.027637701 -0.085052356 -0.0048346743 -0.06312244
000040 f1 30 68 bd 6d a4 a8 3b b5 27 89 3d 2e fa 0e 3d
       -0.0566873 0.005146554 0.06697027 0.03490656
000050 42 8a e8 3d b5 89 c2 bc e4 b4 98 bc 30 2d 93 3d
       0.113544956 -0.023747304 -0.018640943 0.07186353
000060 6f e4 5c 3d 8b 2f 53 3c 05 b6 f9 3d cc a6 3b 92
       0.05392879 0.012889753 0.121929206 -5.921239e-28
000070 d0 1a ea 97 11 b2 42 1e 8a 55 3b 88 30 6c 70 88
       -1.5128664e-24 1.0307098e-20 -5.6373816e-34 -7.2349547e-34
000080 2b 2f 1f 8d 7c 00 57 88 96 50 64 88 f7 38 89 88
       -4.9052434e-31 -6.469978e-34 -6.8705983e-34 -8.25878e-34
000090 f5 fd 86 88 5e 1b 6e 88 f2 cd d8 8d ca 9c 54 88
       -8.124537e-34 -7.165269e-34 -1.3361607e-30 -6.3980734e-34
0000a0 d8 52 67 88 36 c5 47 88 4c 84 53 88 94 dc 49 88
       -6.9611416e-34 -6.0116205e-34 -6.3651017e-34 -6.0745526e-34
0000b0 a1 ec 91 88 58 38 44 88 36 92 47 88 0f 5a 4a 88
       -8.782501e-34 -5.9047836e-34 -6.0056254e-34 -6.0893027e-34
0000c0 ac 4a 50 88 2b 07 30 88 41 72 65 08 0f 13 90 88
       -6.26805e-34 -5.29715e-34 6.9046486e-34 -8.671165e-34
0000d0 74 ab 6c 88 c3 3c 74 08 52 4d cb 3d d0 dc 4e bd
       -7.122021e-34 7.3497504e-34 0.09926857 -0.050503552
0000e0 de c7 4f bc 51 a8 04 3e c4 20 b0 3d cf e8 27 bd
       -0.012681929 0.12954833 0.085999995 -0.040993508
0000f0 12 8e 88 3d 62 c9 f7 bb c5 e8 c3 bd 5f e7 ae bd
       0.06667723 -0.0075618485 -0.09565882 -0.08540224
000100 1f 62 77 3d 74 0b 0e 3e 23 d0 9b bd bf d4 2b bd
       0.06039631 0.13871557 -0.07608058 -0.041950937
000110 6b 9c fc bb fa 5d b9 bd ac 48 dd 3b 38 22 bc bd
       -0.007709076 -0.09051128 0.006753048 -0.09186214
000120 1b 47 85 3d 5c 29 cb 3d 26 e7 10 bd 2b 93 ec bd
       0.06507703 0.09919998 -0.03537669 -0.115515076
000130 14 79 a7 3d 1d 78 04 3e a7 a8 b7 bd c8 c8 5e bd
       0.08177391 0.12936445 -0.08967715 -0.0543907
000140 b8 4d 95 bd 62 cf 56 88 ff 10 93 08 68 23 62 88
       -0.07290214 -6.464206e-34 8.851236e-34 -6.805102e-34
000150 0b f3 80 88 f9 ca 54 88 70 8c 78 88 47 f5 51 88
       -7.760859e-34 -6.4035023e-34 -7.479487e-34 -6.318197e-34
000160 96 88 59 88 e4 d1 8c 08 60 e1 8e 88 4d 24 92 88
       -6.546162e-34 8.475289e-34 -8.5992995e-34 -8.79559e-34
000170 b8 69 9c 08 16 aa 4e 08 b4 8e 55 88 8d e4 95 08
       9.413763e-34 6.2190805e-34 -6.4265103e-34 9.021343e-34
000180 82 f1 56 08 00 f5 90 88 e2 80 71 88 42 17 86 88
       6.4682174e-34 -8.724284e-34 -7.26748e-34 -8.0702995e-34
000190 92 b8 92 08 70 ee 8b 88 21 37 6b 88 5c c5 8f 08
       8.830448e-34 -8.421815e-34 -7.0782544e-34 8.652898e-34
0001a0 8e b7 8a 88 41 b5 72 88 ac 3f 96 08 c2 e1 89 88
       -8.348726e-34 -7.303729e-34 9.042766e-34 -8.298463e-34
0001b0 6b cd 71 3d 12 e9 6d 3c e1 e8 f3 3d f2 72 bf 3d
       0.059033792 0.0145209 0.119096525 0.09348096
0001c0 0b 74 87 bd d7 cd f4 bc 0e 08 a7 3b 51 5d 8f bd
       -0.0661393 -0.029883308 0.0050973957 -0.070002206
0001d0 d5 19 eb bc 66 76 b4 3d 43 fe c9 3d f0 84 b9 bd
       -0.028698841 0.08811645 0.0986295 -0.09058559
0001e0 a2 b6 20 bd c2 0e e3 3d d7 3b 93 bd 88 68 89 3d
       -0.039236672 0.11086799 -0.07189148 0.06709391
0001f0 57 df 87 3b 05 a3 9b 3d 40 0f a3 bc ad 25 0f bd
       0.004146497 0.07599453 -0.019904733 -0.03494804
000200 9a 4f 08 3d 80 8e 73 bd 08 67 12 bc eb cd b5 bd
       0.03327904 -0.05946207 -0.008935697 -0.08877166
000210 77 a2 fd bd f4 27 5e bd 86 64 e4 3c 1f aa b8 bb
       -0.12384503 -0.05423732 0.027879965 -0.0056355144
000220 21 ea 14 bd ed d8 5d bb b5 ae d2 bc 20 68 19 bd
       -0.036356095 -0.0033851222 -0.025718072 -0.037452817
000230 4f e8 47 bd 62 09 5d bc ae 26 a3 bc e6 90 c3 3c
       -0.04880553 -0.013491007 -0.019915905 0.023872804
000240 c0 d2 17 bd fe be 4f bd ca 03 2b 3d 48 e2 ec bc
       -0.03706622 -0.050719254 0.04175166 -0.028916493
000250 da 38 93 bc 80 07 91 3c 66 ac 9b bc c8 f1 b8 3a
       -0.017971445 0.017703772 -0.019003104 0.0014110142
000260 83 38 85 bc d9 83 06 3b 8b 7f c1 bc 99 19 48 3c
       -0.016262298 0.0020525365 -0.023620388 0.012213134
000270 9a f2 22 3c 00 51 24 bd b2 ec 0d 3d e0 16 f0 3c
       0.009945536 -0.04011631 0.03464956 0.029307783
000280 76 45 36 bd cb 0e 5d 3c 01 8f 8d bd c8 1b 52 3d
       -0.044499837 0.013492296 -0.069120415 0.051296026
000290 25 f3 84 3d 06 7d 5e bc 12 12 e1 bc fe 8d cd 3d
       0.06491689 -0.013579613 -0.027474437 0.100368485
0002a0 cd 20 5d 3c 6f 56 90 3d b2 cd cd 3d 26 a3 bb 3a
       0.01349659 0.07047736 0.10048999 0.001431559
0002b0 88 0f a0 3d 98 b9 ce bc 39 d2 ad bd af 7e 89 bd
       0.07815462 -0.025234982 -0.084873624 -0.06713616
0002c0 40 bb 8a bd 9b 01 c3 3d 68 16 6e 3d 5e 08 14 3d
       -0.06773996 0.095217906 0.058126837 0.036140792
0002d0 b1 cc da 3d 4e 3b a6 bd d3 a9 bd bd 1f 4f 90 bd
       0.10683573 -0.0811678 -0.09260907 -0.07046341
0002e0 95 fd d5 bd e5 73 2b 3c 9a 0f 01 3d 60 66 91 3a
       -0.104487576 0.010464643 0.03150902 0.0011093132
0002f0 b4 50 f9 bd de 7a f6 3b d0 3b 29 3d 63 1e f0 3c
       -0.12173596 0.007521971 0.041316807 0.029311365
000300 2f 99 f8 bd 9b c2 c3 bd f9 91 d3 3c 00 bf 9c 3d
       -0.121385925 -0.095586024 0.025826441 0.07653618
000310 00 5d 12 3d 3d 28 8a bc 1c 16 2c bd 51 f9 e3 bc
       0.035733223 -0.01686489 -0.042013273 -0.027828844
000320 50 0d f4 3d 78 3e 94 bc 5d 67 2b be 63 fc 19 be
       0.11916602 -0.018096194 -0.16738649 -0.15037684
000330 2b 65 b9 bc 16 2d be bc aa ae 2a 3d a5 b3 27 3c
       -0.022631248 -0.023214858 0.04167048 0.010235702
000340 60 c0 52 bb fd d5 16 bd 6e 41 4f bd 82 70 bf 3d
       -0.0032158121 -0.03682517 -0.050599508 0.09347631
000350 25 c1 88 bc 7a e1 17 3e 84 1f 0f 3e e1 fd 93 3b
       -0.016693661 0.14832106 0.13976866 0.0045163487
000360 c4 0f ac 3c 82 fe 6a bd 4d f8 e6 bc 34 5f 12 3e
       0.021003611 -0.057371624 -0.02819457 0.1429413
000370 54 3e b6 3d 7b 6e b6 bd e0 78 8e 3d f6 9d df 3c
       0.08898607 -0.08907791 0.06956649 0.027297001
000380 84 bf f7 bc 2a 19 88 3d c8 32 8f 3a b6 af da bc
       -0.030242689 0.06645425 0.0010925168 -0.026695114
000390 ac 9a 8d 3d d0 77 17 bd ea 21 83 bc 3b ef 85 3c
       0.06914267 -0.036979496 -0.016007382 0.016349426
0003a0 c6 dd c4 bd 7d 9f e3 ba ec d4 69 bd 7e b5 d9 bc
       -0.096126124 -0.0017366257 -0.057087824 -0.0265758
0003b0 f3 64 d9 3c 45 9d 99 bd 42 15 8f bd 7e 75 42 3d
       0.026537394 -0.075007 -0.069864765 0.04747533
0003c0 00 1e 0f bd cf 10 ef bd 24 f3 03 3c 3c e7 e0 bc
       -0.03494072 -0.11673128 0.008053575 -0.027454011
0003d0 57 ba a3 3c 54 cb a0 bd 10 7e 8b 3c 3c 01 e5 bc
       0.019986315 -0.07851282 0.017027885 -0.02795469
0003e0 cb f9 a8 3d 03 36 8f bd 09 52 7c bc 16 92 26 bd
       0.08250769 -0.06992724 -0.015400418 -0.040666662
0003f0 71 2c a4 bd 45 42 68 bc 81 ed 8c 3d 58 86 36 bd
       -0.08016289 -0.014175956 0.06881238 -0.044561714

sequential/conv2d_3/Conv2D i1 [144, 3, 3, 96]
000000 fb 16 00 ee f9 2b 02 cf d4 1d 0f 05 05 16 28 18
       -5 22 0 -18 -7 43 2 -49 -44 29 15 5 5 22 40 24
000010 f0 ce ef f0 ed ca f5 01 05 40 0c 4d 33 f9 22 f3
       -16 -50 -17 -16 -19 -54 -11 1 5 64 12 77 51 -7 34 -13
000020 38 22 e5 db ed cb 20 f1 34 02 f8 ea 01 e7 dc dd
       56 34 -27 -37 -19 -53 32 -15 52 2 -8 -22 1 -25 -36 -35
000030 f5 d9 c7 cd cc f5 ed bb 0e df ec f6 eb fc e8 d6
       -11 -39 -57 -51 -52 -11 -19 -69 14 -33 -20 -10 -21 -4 -24 -42
000040 e0 fa ed 07 e4 28 f8 f5 e4 e2 13 f0 16 eb bf fb
       -32 -6 -19 7 -28 40 -8 -11 -28 -30 19 -16 22 -21 -65 -5
000050 fd 08 f7 e5 06 d7 1c 11 cb eb f6 cb d4 f9 f4 02
       -3 8 -9 -27 6 -41 28 17 -53 -21 -10 -53 -44 -7 -12 2
000060 05 1b 13 ff 0c 29 03 d1 cf 09 0e 01 03 39 2b 19
       5 27 19 -1 12 41 3 -47 -49 9 14 1 3 57 43 25
000070 06 e1 ea fc e8 e1 ef f9 fb 66 26 41 35 13 f8 fd
       6 -31 -22 -4 -24 -31 -17 -7 -5 102 38 65 53 19 -8 -3
000080 0d 1b ef 03 e4 c0 1e c1 1d 07 ff ea 09 ed e8 d9
       13 27 -17 3 -28 -64 30 -63 29 7 -1 -22 9 -19 -24 -39
000090 e7 e7 c6 f5 bd f6 01 cb 16 ec dc 07 f3 05 d0 e1
       -25 -25 -58 -11 -67 -10 1 -53 22 -20 -36 7 -13 5 -48 -31
0000a0 0a 18 d7 05 db 25 ef e9 e3 ef 39 04 06 e2 b1 fe
       10 24 -41 5 -37 37 -17 -23 -29 -17 57 4 6 -30 -79 -2
0000b0 fb 06 00 f1 0d f1 1e 1b bf ea f2 bc ff f5 e5 f4
       -5 6 0 -15 13 -15 30 27 -65 -22 -14 -68 -1 -11 -27 -12
0000c0 08 3e 0f f9 1f 1d 26 cd e4 00 0b d9 00 fd 2c 5b
       8 62 15 -7 31 29 38 -51 -28 0 11 -39 0 -3 44 91
0000d0 f8 e5 e1 02 02 e1 f0 0a 0e 4d 0a 35 33 1c 14 f9
       -8 -27 -31 2 2 -31 -16 10 14 77 10 53 51 28 20 -7
0000e0 2a 3f 03 12 ec dd 12 db 23 07 0e ed 03 ee d9 c8
       42 63 3 18 -20 -35 18 -37 35 7 14 -19 3 -18 -39 -56
0000f0 e8 e9 f2 eb d3 ee f7 dc ee cd e6 05 e5 06 bb df
       -24 -23 -14 -21 -45 -18 -9 -36 -18 -51 -26 5 -27 6 -69 -33

sequential/conv2d_2/Conv2D i1 [96, 3, 3, 64]
000000 04 1f e3 dd 04 0c fa f3 db f7 04 16 08 0e 06 99
       4 31 -29 -35 4 12 -6 -13 -37 -9 4 22 8 14 6 -103
000010 09 de 0c e2 e4 f5 c4 d4 0a e4 09 e2 d4 cd ea d3
       9 -34 12 -30 -28 -11 -60 -44 10 -28 9 -30 -44 -51 -22 -45
000020 af fa f1 bc 0f 02 fa e7 ea f5 0a 00 f0 ac 56 f0
       -81 -6 -15 -68 15 2 -6 -25 -22 -11 10 0 -16 -84 86 -16
000030 06 ff f1 f4 2d 34 d9 e6 fc cb c6 f2 e0 05 f7 07
       6 -1 -15 -12 45 52 -39 -26 -4 -53 -58 -14 -32 5 -9 7
000040 0a e7 ed f7 eb 11 04 f7 d8 ff 00 fc d0 05 10 cb
       10 -25 -19 -9 -21 17 4 -9 -40 -1 0 -4 -48 5 16 -53
000050 f0 f3 f3 e3 fd 0d d0 22 03 cc 37 f8 f0 06 0f ea
       -16 -13 -13 -29 -3 13 -48 34 3 -52 55 -8 -16 6 15 -22
000060 e6 fd e5 f5 0d f9 03 f0 eb f5 0a f3 1b ef 31 01
       -26 -3 -27 -11 13 -7 3 -16 -21 -11 10 -13 27 -17 49 1
000070 46 ff 00 db 33 1f e5 fe d5 da 47 11 0f 02 f1 0a
       70 -1 0 -37 51 31 -27 -2 -43 -38 71 17 15 2 -15 10
000080 f0 e8 ff 38 08 f4 28 2a 34 01 08 de d2 01 37 41
       -16 -24 -1 56 8 -12 40 42 52 1 8 -34 -46 1 55 65
000090 14 29 09 0b f3 50 10 5d fa f5 33 23 29 2d 3b 15
       20 41 9 11 -13 80 16 93 -6 -11 51 35 41 45 59 21
0000a0 05 0f 0d 36 e8 e2 d3 fd f2 f9 fe f0 33 34 11 07
       5 15 13 54 -24 -30 -45 -3 -14 -7 -2 -16 51 52 17 7
0000b0 22 0e 08 e9 0f e4 16 1b dd 06 7f 05 4c 30 fb 0e
       34 14 8 -23 15 -28 22 27 -35 6 127 5 76 48 -5 14
0000c0 10 f7 f9 e0 e7 ff 0a c7 ca 07 00 31 14 14 13 8c
       16 -9 -7 -32 -25 -1 10 -57 -54 7 0 49 20 20 19 -116
0000d0 f4 c6 07 e4 de d2 ac bd f4 e6 21 ef d4 03 0a 17
       -12 -58 7 -28 -34 -46 -84 -67 -12 -26 33 -17 -44 3 10 23
0000e0 14 ed e5 e3 fd 26 04 eb 27 14 12 f7 e3 dd 29 01
       20 -19 -27 -29 -3 38 4 -21 39 20 18 -9 -29 -35 41 1
0000f0 14 e9 fe f4 fe 30 de ee 10 bd cd e9 c5 ef fd ea
       20 -23 -2 -12 -2 48 -34 -18 16 -67 -51 -23 -59 -17 -3 -22

sequential/conv2d_1/Conv2D i1 [64, 3, 3, 32]
000000 2e 02 e8 14 b4 31 43 ef 25 1a ad 23 04 0e 37 f1
       46 2 -24 20 -76 49 67 -17 37 26 -83 35 4 14 55 -15
000010 00 d4 00 e7 21 04 11 04 dd 2c ea f3 22 cd ac d3
       0 -44 0 -25 33 4 17 4 -35 44 -22 -13 34 -51 -84 -45
000020 19 03 ef 16 10 29 36 dd 15 1a e1 55 f7 0a f1 c7
       25 3 -17 22 16 41 54 -35 21 26 -31 85 -9 10 -15 -57
000030 00 cd 00 e2 00 f0 00 00 e9 3c 61 1a 26 87 2d 55
       0 -51 0 -30 0 -16 0 0 -23 60 97 26 38 -121 45 85
000040 0b 02 30 15 16 23 fe df 08 17 b8 54 48 29 ba f3
       11 2 48 21 22 35 -2 -33 8 23 -72 84 72 41 -70 -13
000050 00 0b 00 de aa ec 11 ff 18 25 7f 1a 05 9d 29 1c
       0 11 0 -34 -86 -20 17 -1 24 37 127 26 5 -99 41 28
000060 4a 02 ca 13 e7 3b 0f c8 1e 22 d1 f6 d2 02 61 0e
       74 2 -54 19 -25 59 15 -56 30 34 -47 -10 -46 2 97 14
000070 00 cd 00 22 03 ea 06 12 e5 27 c0 12 fe 04 de 15
       0 -51 0 34 3 -22 6 18 -27 39 -64 18 -2 4 -34 21
000080 33 02 c3 14 07 34 11 c5 28 21 ca 04 e1 f4 48 d4
       51 2 -61 20 7 52 17 -59 40 33 -54 4 -31 -12 72 -44
000090 00 1e 00 14 22 de e0 0a d7 26 04 f9 17 a1 28 bb
       0 30 0 20 34 -34 -32 10 -41 38 4 -7 23 -95 40 -69
0000a0 2b 02 ff 13 28 2a f6 d1 1c 1e c2 2d 2e 16 09 ed
       43 2 -1 19 40 42 -10 -47 28 30 -62 45 46 22 9 -19
0000b0 00 d9 00 d3 ef bf ca 04 f7 23 2f f3 fd a9 eb 36
       0 -39 0 -45 -17 -65 -54 4 -9 35 47 -13 -3 -87 -21 54
0000c0 63 02 cd 10 f9 37 e2 bd f0 27 fa cd cf 18 1e f9
       99 2 -51 16 -7 55 -30 -67 -16 39 -6 -51 -49 24 30 -7
0000d0 00 d6 00 f5 e1 cc ed 16 20 3b d3 fa e1 0b b7 a8
       0 -42 0 -11 -31 -52 -19 22 32 59 -45 -6 -31 11 -73 -88
0000e0 58 02 bf 11 ba 34 13 de 01 28 cf da e3 0e 41 e7
       88 2 -65 17 -70 52 19 -34 1 40 -49 -38 -29 14 65 -25
0000f0 00 fb 00 18 18 dd cf 15 f0 2c b0 14 f1 03 0a d6
       0 -5 0 24 24 -35 -49 21 -16 44 -80 20 -15 3 10 -42

sequential/dense/MatMul i1 [32, 9216] scale=0.0014314895 zero_point=0
000000 f5 ff ff ca e6 fc 05 fc 06 f3 00 e6 19 0d e1 f8
       -0.015746385 -0.0014314895 -0.0014314895 -0.07730043 -0.037218727 -0.005725958 0.0071574473 -0.005725958 0.008588937 -0.018609364 0.0 -0.037218727 0.035787236 0.018609364 -0.044376172 -0.011451916
000010 13 17 0e f3 11 07 0f fb 1c 01 fb e7 f4 f9 00 14
       0.0271983 0.032924257 0.020040853 -0.018609364 0.024335321 0.0100204265 0.021472342 -0.0071574473 0.040081706 0.0014314895 -0.0071574473 -0.035787236 -0.017177874 -0.0100204265 0.0 0.02862979
000020 09 f8 f7 f1 08 f7 f7 07 00 fb 38 f4 ef 06 e2 eb
       0.012883405 -0.011451916 -0.012883405 -0.021472342 0.011451916 -0.012883405 -0.012883405 0.0100204265 0.0 -0.0071574473 0.08016341 -0.017177874 -0.024335321 0.008588937 -0.042944685 -0.030061278
000030 ee f7 f0 1a e8 19 00 17 f5 03 ee 0b 16 09 db 05
       -0.02576681 -0.012883405 -0.022903832 0.037218727 -0.03435575 0.035787236 0.0 0.032924257 -0.015746385 0.0042944686 -0.02576681 0.015746385 0.03149277 0.012883405 -0.052965112 0.0071574473
000040 0a 04 f5 13 fb f4 05 39 03 e9 21 fb e3 1f 0f 04
       0.014314895 0.005725958 -0.015746385 0.0271983 -0.0071574473 -0.017177874 0.0071574473 0.0815949 0.0042944686 -0.032924257 0.047239155 -0.0071574473 -0.041513193 0.044376172 0.021472342 0.005725958
000050 f4 05 ea fc 13 ed dd c9 19 e3 0e ef ff 16 f1 02
       -0.017177874 0.0071574473 -0.03149277 -0.005725958 0.0271983 -0.0271983 -0.050102133 -0.078731924 0.035787236 -0.041513193 0.020040853 -0.024335321 -0.0014314895 0.03149277 -0.021472342 0.002862979
000060 f2 0b 01 03 e2 1f ec 12 e6 fc ec da ce 04 03 0c
       -0.020040853 0.015746385 0.0014314895 0.0042944686 -0.042944685 0.044376172 -0.02862979 0.02576681 -0.037218727 -0.005725958 -0.02862979 -0.0543966 -0.07157447 0.005725958 0.0042944686 0.017177874
000070 0d fe e4 1f dd 13 e3 09 e2 f0 13 fb f1 d7 f5 e6
       0.018609364 -0.002862979 -0.040081706 0.044376172 -0.050102133 0.0271983 -0.041513193 0.012883405 -0.042944685 -0.022903832 0.0271983 -0.0071574473 -0.021472342 -0.05869107 -0.015746385 -0.037218727
000080 fd 16 02 03 d0 f5 f1 ff fd 17 05 fe 10 13 fc fa
       -0.0042944686 0.03149277 0.002862979 0.0042944686 -0.0687115 -0.015746385 -0.021472342 -0.0014314895 -0.0042944686 0.032924257 0.0071574473 -0.002862979 0.022903832 0.0271983 -0.005725958 -0.008588937
000090 f9 11 f4 d2 e3 07 f1 0b 1f dc fb ff ff ef 07 09
       -0.0100204265 0.024335321 -0.017177874 -0.065848514 -0.041513193 0.0100204265 -0.021472342 0.015746385 0.044376172 -0.05153362 -0.0071574473 -0.0014314895 -0.0014314895 -0.024335321 0.0100204265 0.012883405
0000a0 fe 0d fa f1 02 ec 0c 0d f4 17 fd 23 05 0f 06 fb
       -0.002862979 0.018609364 -0.008588937 -0.021472342 0.002862979 -0.02862979 0.017177874 0.018609364 -0.017177874 0.032924257 -0.0042944686 0.050102133 0.0071574473 0.021472342 0.008588937 -0.0071574473
0000b0 10 f3 e5 f3 e3 f2 e9 0e 06 fd 0d 0a f5 04 df 0c
       0.022903832 -0.018609364 -0.038650215 -0.018609364 -0.041513193 -0.020040853 -0.032924257 0.020040853 0.008588937 -0.0042944686 0.018609364 0.014314895 -0.015746385 0.005725958 -0.047239155 0.017177874
0000c0 df fc f1 33 f7 1f fa fc 12 0b e7 f5 0c fa e5 ed
       -0.047239155 -0.005725958 -0.021472342 0.07300597 -0.012883405 0.044376172 -0.008588937 -0.005725958 0.02576681 0.015746385 -0.035787236 -0.015746385 0.017177874 -0.008588937 -0.038650215 -0.0271983
0000d0 f5 e9 ee fc e7 0e 13 18 ed d4 fb f6 f2 22 16 d9
       -0.015746385 -0.032924257 -0.02576681 -0.005725958 -0.035787236 0.020040853 0.0271983 0.03435575 -0.0271983 -0.06298554 -0.0071574473 -0.014314895 -0.020040853 0.048670642 0.03149277 -0.05582809
0000e0 f2 16 19 08 fd 07 e5 d7 f7 0c fd 0d 03 00 03 04
       -0.020040853 0.03149277 0.035787236 0.011451916 -0.0042944686 0.0100204265 -0.038650215 -0.05869107 -0.012883405 0.017177874 -0.0042944686 0.018609364 0.0042944686 0.0 0.0042944686 0.005725958
0000f0 f6 fd 09 02 07 1c 00 05 04 fd ea f5 e8 fe 03 03
       -0.014314895 -0.0042944686 0.012883405 0.002862979 0.0100204265 0.040081706 0.0 0.0071574473 0.005725958 -0.0042944686 -0.03149277 -0.015746385 -0.03435575 -0.002862979 0.0042944686 0.0042944686
